andmed/kombo_nr_0/mudelid/jarjestatud_narvivork_relu.pth (torch, 950207 bytes, 11 tensors)

model.0.weight f4 [32, 41]
0.017465645 0.02123971 0.0044352934 -0.053728126 -0.20968446 0.0210616 0.020474553 -0.14173386
-0.01766859 -0.18797593 0.060859453 0.05597807 0.09000809 -0.18230663 -0.17787172 0.05312536
-0.007200375 -0.11690525 0.030478416 -0.1554433 0.0155795 -0.14534195 0.05165747 -0.049893036
0.005948615 -0.105512545 0.009686009 -0.111738525 -0.101802796 -0.15873311 -0.08058961 0.03403398
0.042900193 -0.037431244 -0.20641722 -0.038932905 0.013486265 0.02765394 -0.12227384 -0.017262727
-0.00053588784 -0.08030285 -0.022257878 -0.047135144 0.010851949 0.11658331 -0.026060585 0.15258694
-0.109503254 -0.12793726 0.026337817 0.0046039624 -0.12914376 -0.0051870584 -0.1435837 0.07534686
0.024157332 -0.025085706 0.13970006 -0.108261496 0.13329673 0.048473936 -0.04940231 -0.052334618
-0.048010923 0.110666916 -0.039467357 0.092137106 0.095857434 -0.09871699 -0.07903441 0.088744484
0.15373895 -0.15259902 0.03182789 0.11036353 0.022742879 0.15063937 0.08999004 0.044827763
-0.06123078 -0.024620831 0.067003295 -0.1357088 -0.06752765 0.06531166 0.017669052 0.09236009
-0.020188557 -0.09831381 0.11786802 -0.13657518 -0.11743083 0.026067121 -0.15547793 0.109408714
0.12502325 0.085269555 -0.05309175 -0.09002326 0.082907364 0.11104129 -0.08593989 -0.115137376
-0.10453776 -0.025485234 -0.040362388 0.11657193 -0.13369255 0.1250009 -0.10811742 0.062934846
-0.034841243 0.011175891 -0.09493178 0.10058951 -0.13997358 0.12354438 0.086579174 -0.11342394
0.15309836 0.113747105 -0.05746605 0.03449589 -0.05721341 -0.11204918 -0.100473106 0.1518368
0.024448117 0.1309473 -0.05903538 0.015404193 -0.028094234 -0.0764668 -0.037809018 -0.099689335
-0.060960807 0.08628275 0.06807137 -0.04282647 -0.07439069 0.010633661 0.046661183 0.08732666
-0.042786907 0.06737706 0.064604506 0.038558368 0.111888826 -0.055636205 -0.004726297 0.09083788
0.13416733 -0.103295036 0.10841273 -0.12121462 -0.012227177 -0.023364512 -0.085909635 -0.02307181
0.12087925 0.1518733 0.012086001 -0.10471962 0.014770364 -0.023924913 0.15392363 -0.016552158
-0.062080994 0.12760548 -0.0779016 0.03365474 0.13315405 0.035267357 0.028269758 -0.016641391
0.13306566 -0.09842805 0.05920061 0.14603789 -0.06527577 0.012172405 -0.07762936 -0.051414922
-0.06632624 0.056728654 0.08647769 -0.046713237 0.14143817 -0.042439416 -0.14444524 -0.03223051
0.012040035 0.06048677 0.090376444 0.07525611 0.13866998 -0.10821018 0.1422329 0.10760886
0.07314235 -0.009520175 -0.04247375 -0.018936334 -0.046231885 0.04817713 0.042062182 0.04294312
0.08301739 0.09005987 -0.046550263 -0.09687978 -0.03839579 -0.044080965 -0.061348576 -0.060042974
-0.1377952 0.070052855 0.0038365985 -0.21173383 -0.021809561 0.062823765 -0.060573336 -0.08825537
-0.050772455 -0.036918916 -0.04124819 -0.13691524 -0.12081898 -0.19180542 -0.034791823 -0.086590335
-0.07039137 0.027668986 -0.19576761 0.067155786 -0.052764975 -0.15851152 -0.028311621 -0.19464622
-0.11806611 -0.109086104 0.04637356 -0.19814669 -0.21857445 0.086412564 -0.07754897 -0.09851821
-0.12569948 -0.07766011 0.0056309355 0.088120185 -0.17884369 0.017395047 0.015923953 -0.10070256
00000000: 1d14 8f3c e6fe ad3c f055 913b 0612 5cbd
00000010: 86b7 56be 6089 ac3c 40ba a73c ae22 11be
00000020: b8bd 90bc c37c 40be c347 793d 4349 653d
00000030: 2956 b83d 97ae 3abe 0124 36be fa99 593d
00000040: 20f1 ebbb 056c efbd dfad f93c 872c 1fbe
00000050: 2941 7f3c 85d4 14be c996 533d a45c 4cbd
00000060: 99ec c23b f616 d8bd 11b2 1e3c 2bd7 e4bd
00000070: fc7d d0bd ef8a 22be 2a0c a5bd 3767 0b3d
00000080: 1db8 2f3d 8151 19bd 095f 53be 1c78 1fbd
00000090: 7ff5 5c3c 848a e23c b56a fabd 906a 8dbc
000000a0: d37a 0cba d275 a4bd 2756 b6bc c810 41bd
000000b0: 60cc 313c 3bc3 ee3d 027d d5bc c03f 1c3e
000000c0: 3e43 e0bd fc01 03be 68c2 d73c d6dc 963b
000000d0: 433e 04be 33f8 a9bb 9b07 13be 744f 9a3d
000000e0: 99e5 c53c 8a80 cdbc 880d 0f3e 34b8 ddbd
000000f0: f07e 083e 9b8c 463d 145a 4abd d35c 56bd
00000100: 1aa7 44bd 56a5 e23d 86a8 21bd 61b2 bc3d
00000110: e750 c43d 222c cabd cbdc a1bd abbf b53d
00000120: be6d 1d3e eb42 1cbe f65d 023d 4606 e23d
00000130: 464f ba3c 3541 1a3e b34c b83d 519d 373d
00000140: 20cd 7abd a0b1 c9bc 0639 893d 3ff7 0abe
00000150: f04b 8abd 1fc2 853d b0be 903c 4927 bd3d
00000160: 7962 a5bc c058 c9bd ca64 f13d 5dda 0bbe
00000170: 937f f0bd b78a d53c 9b35 1fbe ad11 e03d
00000180: 1806 003e cea1 ae3d bc76 59bd 1d5e b8bd
00000190: 56cb a93d 9e69 e33d 4101 b0bd 25cd ebbd
000001a0: e517 d6bd 69c6 d0bc 0853 25bd 44bd ee3d
000001b0: b3e6 08be 3c00 003e aa6c ddbd fce3 803d
000001c0: b1b5 0ebd 161b 373c 986b c2bd df01 ce3d
000001d0: 3c55 0fbe d604 fd3d 6c50 b13d d04a e8bd
000001e0: d1c5 1c3e 3ef4 e83d 8561 6bbd 904b 0d3d
000001f0: 9c58 6abd 0a7a e5bd d8c4 cdbd 1b7b 1b3e
00000200: 6b47 c83c 0d17 063e 15cf 71bd de61 7c3c
00000210: e125 e6bc a09a 9cbd a1dd 1abd ec29 ccbd
00000220: 0ab2 79bd 03b5 b03d 0169 8b3d cf6a 2fbd
00000230: 255a 98bd cf38 2e3c cc1f 3f3d 52d8 b23d
00000240: 5341 2fbd fcfc 893d 5e4f 843d 61ef 1d3d
00000250: f825 e53d cae2 63bd 0edf 9abb 3609 ba3d
00000260: 2963 093e 598c d3bd 7e07 de3d 5f3f f8bd
00000270: 7f54 48bc ef66 bfbc 64f1 afbd 1801 bdbc
00000280: 8a8f f73d ad84 1b3e 5d04 463c 3d77 d6bd
00000290: 66ff 713c 2efe c3bc 289e 1d3e 6498 87bc
000002a0: a448 7ebd 03ab 023e e08a 9fbd 8dd9 093d
000002b0: 8959 083e 8174 103d fb95 e73c 8753 88bc
000002c0: 5d42 083e a594 c9bd 577c 723d f58a 153e
000002d0: 4eaf 85bd c46e 473c 24fc 9ebd 7498 52bd
000002e0: 0dd6 87bd 4e5c 683d 371b b13d 6156 3fbd
000002f0: 2bd5 103e f4d4 2dbd 74e9 13be 2404 04bd
00000300: 9143 453c fac0 773d 4917 b93d e01f 9a3d
00000310: 81ff 0d3e 4d9d ddbd 80a5 113e 0962 dc3d
00000320: a8cb 953d 82fa 1bbc f4f8 2dbd 5f20 9bbc
00000330: a55d 3dbd 6255 453d 6549 2c3d 20e5 2f3d
00000340: 0505 aa3d 4f71 b83d 7dab 3ebd e868 c6bd
00000350: e744 1dbd 3e8e 34bd a548 7bbd 9fef 75bd
00000360: 2f1a 0dbe df77 8f3d 716f 7b3b c1d0 58be
00000370: f7a9 b2bc bfa9 803d bf1b 78bd 3bbf b4bd
00000380: c7f6 4fbd 4a38 17bd ddf3 28bd 8233 0cbe
00000390: f16f f7bd a468 44be df81 0ebd 4656 b1bd
000003a0: 5a29 90bd 12aa e23c 4e77 48be f988 893d
000003b0: 1620 58bd d850 22be c6ed e7bc 5751 47be
000003c0: a5cc f1bd 8968 dfbd 34f2 3d3d f7e6 4abe
000003d0: fbd1 5fbe 12f9 b03d ffd1 9ebd eac3 c9bd
000003e0: 5db7 00be 440c 9fbd b683 b83b 5b78 b43d
000003f0: cd22 37be 0f80 8e3c f372 823c 253d cebd

model.0.bias f4 [32]
0.059316855 -0.13733993 -0.08920878 0.048842486 0.087996885 -0.017308146 0.04159124 0.008325745
-0.05207638 -0.08207651 -0.13632084 0.01634867 0.13711457 0.011531771 -0.1772117 0.14157602
-0.15623312 0.048446205 -0.13696499 -0.12058969 0.015159841 -0.1259257 -0.19166835 0.0045519033
0.073700055 -0.047803596 0.009999237 0.054392956 -0.19240335 -0.005766104 0.113130085 0.06422227
00000000: 3bf6 723d d7a2 0cbe 18b3 b6bd 0f0f 483d
00000010: b637 b43d d0c9 8dbc 935b 2a3d b568 083c
00000020: 0b4e 55bd bb17 a8bd b197 0bbe a5ed 853c
00000030: c367 0c3e c1ef 3c3c fc76 35be 4ef9 103e
00000040: 93fb 1fbe 876f 463d 8d40 0cbe baf7 f6bd
00000050: fb60 783c abf2 00be b544 44be 2228 953b
00000060: 0ef0 963d b4cd 43bd d7d3 233c 26cb 5e3d
00000070: 6205 45be 96f1 bcbb bfb0 e73d f786 833d

model.2.weight f4 [128, 32]
-0.13208959 0.1651296 -0.16248275 0.15096545 0.13594368 -0.22091718 0.0033293588 -0.012608559
0.07428433 -0.057148717 -0.020353787 0.100070484 0.16159612 0.035172556 0.06791678 -0.04777744
0.041404616 -0.080516234 -0.052361786 0.029582787 0.017223366 0.09069955 -0.08246708 -0.08279134
-0.09523676 -0.011261687 -0.07346771 -0.083171345 0.10023203 -0.21026973 0.032100577 -0.033399675
-0.14905639 -0.085521854 0.087656885 -0.09876502 -0.1732112 -0.12806597 0.064180605 -0.03291869
-0.17813079 0.10509701 -0.07425071 -0.0020835872 -0.16911311 -0.15612383 -0.1140561 -0.050099455
0.04356572 0.09180804 0.040013265 0.16190927 -0.065536074 -0.07629838 0.032752287 -0.11520981
-0.031831134 -0.06487882 0.12473075 -0.022227362 -0.060807552 0.06606409 -0.0015299728 0.03978209
-0.0019653973 -0.02442452 -0.16653524 -0.13732857 0.11194698 -0.119917065 0.053247623 -0.040571067
0.04323082 -0.10631555 -0.04138125 -0.032417767 -0.16690956 -0.07167019 0.08084191 -0.14578208
-0.1305515 -0.081703834 0.09467814 -0.009354282 -0.05082321 0.13698213 -0.07690417 0.10035607
-0.14303589 0.003425378 0.12280445 0.02201566 0.059299648 -0.15275046 -0.0038164393 0.06577177
-0.2193389 -0.05367241 0.078658536 0.06364235 0.03155227 -0.054056775 0.111323334 0.0983653
0.03621355 -0.16733763 0.026888445 0.08360138 0.08835322 -0.03297919 -0.18099616 -0.0728127
-0.042687878 -0.22399083 -0.21818483 -0.066747665 -0.1338016 0.08332811 -0.1322686 -0.22565973
0.03733962 0.04758452 0.12564692 -0.16962874 -0.02113193 -0.04876804 0.11694444 -0.1137205
-0.044430785 0.14972009 -0.15568036 -0.10699816 0.10512749 -0.015810613 -0.22763899 0.15631966
-0.13397829 -0.012292899 -0.06306941 -0.15385136 0.09047952 -0.084148586 -0.02938403 0.053149976
-0.016535368 -0.15784572 0.16346546 0.13471073 0.15060163 0.017493619 0.069973275 -0.12887487
-0.029435126 -0.1004605 -0.13696611 0.1740495 -0.22796437 -0.09619172 0.013359329 0.048342306
-0.093901716 0.041887075 -0.03740286 0.11248751 0.05881112 -0.016767642 -0.20255685 -0.025293082
-0.084933504 0.0005687922 0.073591895 0.0049588974 0.007891618 0.0909654 0.107369065 0.14398064
-0.06994578 0.10871836 0.15005058 0.09999536 0.09195815 -0.15013382 -0.0532953 0.109169394
-0.04577034 -0.13760342 -0.037378207 0.112894945 -0.07616439 -0.04370675 -0.15778916 -0.040939447
0.008607245 0.06205253 -0.14475337 0.05767931 -0.14850621 -0.007371046 -0.17485456 0.035239097
-0.12048939 -0.075157486 -0.041114967 -0.09222783 0.11697653 0.036880463 -0.15911515 0.07833834
-0.14731608 0.038264237 -0.050145023 0.06715637 -0.103390045 -0.10170589 0.06659888 -0.22515781
0.043387968 0.09789862 0.12216953 0.010797453 -0.14912981 -0.11727973 -0.12015628 -0.045357563
0.035850517 0.12192388 -0.15820397 -0.10023747 0.022876909 -0.17171016 -0.082430944 0.036174975
0.04494852 0.1357857 -0.06588064 -0.10294787 -0.15335883 -0.100839555 0.077084646 -0.01316261
-0.15306458 0.0009698753 0.109581426 0.1218749 0.08568835 -0.08951514 -0.12650672 0.15873818
0.041050438 0.05499127 -0.08970499 -0.006281629 -0.19913223 -0.11932727 -0.12411971 -0.078593776
00000000: 7e42 07be bc17 293e e161 26be b096 1a3e
00000010: d234 0b3e 1d38 62be 5f31 5a3b 2194 4ebc
00000020: 6222 983d c614 6abd fcbc a6bc c1f1 cc3d
00000030: 7479 253e 1911 103d f417 8b3d 47b2 43bd
00000040: e397 293d b2e5 a4bd 5079 56bd 9a57 f23c
00000050: 0418 8d3c b0c0 b93d 80e4 a8bd 828e a9bd
00000060: 7e0b c3bd f082 38bc 3d76 96bd bd55 aabd
00000070: 7346 cd3d f350 57be e57b 033d 19ce 08bd
00000080: 3da2 18be 1526 afbd 7485 b33d 5145 cabd
00000090: 475e 31be ba23 03be 1f71 833d c0d5 06bd
000000a0: eb67 36be 1a3d d73d c210 98bd cb8c 08bb
000000b0: fd2b 2dbe edde 1fbe 3f96 e9bd 1635 4dbd
000000c0: f871 323d db05 bc3d f3e4 233d 8bcb 253e
000000d0: c737 86bd 5342 9cbd 4327 063d 1ff3 ebbd
000000e0: 5d61 02bd 30df 84bd d672 ff3d 2816 b6bc
000000f0: 5711 79bd 9c4c 873d 5e89 c8ba 8bf2 223d
00000100: e5cd 00bb ee15 c8bc 3788 2abe dc9f 0cbe
00000110: 7544 e53d 1497 f5bd 2e1a 5a3d d92d 26bd
00000120: cd12 313d f8bb d9bd 637f 29bd 7ec8 04bd
00000130: 57ea 2abe d2c7 92bd 7190 a53d e647 15be
00000140: 4baf 05be 5754 a7bd 9de6 c13d b442 19bc
00000150: 002c 50bd 0b45 0c3e ef7f 9dbd 7c87 cd3d
00000160: 0078 12be 4e7c 603b e680 fb3d 2f5a b43c
00000170: 30e4 723d 9e6a 1cbe 3a1d 7abb 5ab3 863d
00000180: 609a 60be 9ad7 5bbd ba17 a13d ec56 823d
00000190: f43c 013d a36a 5dbd 7dfd e33d bf73 c93d
000001a0: a954 143d 8e5a 2bbe 2845 dc3c 3337 ab3d
000001b0: 88f2 b43d 3015 07bd 0f57 39be d31e 95bd
000001c0: 7cd9 2ebd da5d 65be d86b 5fbe 00b3 88bd
000001d0: 4903 09be eea7 aa3d 6b71 07be 5813 67be
000001e0: 6ef1 183d fce7 423d 96a9 003e 28b3 2dbe
000001f0: df1c adbc ffc0 47bd 9180 ef3d 4be6 e8bd
00000200: 0efd 35bd 3950 193e ac6a 1fbe da21 dbbd
00000210: 154d d73d 4285 81bc 321a 69be 4312 203e
00000220: 9b31 09be 2868 49bc 892a 81bd 368b 1dbe
00000230: 544d b93d 1856 acbd c7b6 f0bc cab3 593d
00000240: 2e75 87bc 4fa2 21be 7d63 273e 9cf1 093e
00000250: 5037 1a3e c74e 8f3c 264e 8f3d c6f7 03be
00000260: ef21 f1bc 3cbe cdbd d840 0cbe 083a 323e
00000270: 7e6f 69be 2a00 c5bd 16e1 5a3c 9502 463d
00000280: 8b4f c0bd c891 2b3d be33 19bd da5f e63d
00000290: eee3 703d 4b5c 89bc 106b 4fbe 7033 cfbc
000002a0: 9ef1 adbd 001b 153a 59b7 963d 3f7e a23b
000002b0: d84b 013c 114c ba3d 50e4 db3d a96f 133e
000002c0: bc3f 8fbd bba7 de3d dca6 193e 5eca cc3d
000002d0: 8e54 bc3d aebc 19be 2c4c 5abd 3494 df3d
000002e0: ae79 3bbd e9e7 0cbe e419 19bd 7735 e73d
000002f0: 13fc 9bbd d905 33bd 7b93 21be 1fb0 27bd
00000300: 6705 0d3c cb2a 7e3d 3a3a 14be 2441 6c3d
00000310: 0312 18be d188 f1bb 130d 33be df56 103d
00000320: 24c3 f6bd 2bec 99bd 2b68 28bd f2e1 bcbd
00000330: 6491 ef3d f80f 173d 15ef 22be da6f a03d
00000340: 07da 16be f6ba 1c3d de64 4dbd 4789 893d
00000350: 29be d3bd 2d4b d0bd fe64 883d c58f 66be
00000360: 95b7 313d 127f c83d 0534 fa3d cde7 303c
00000370: 7cb5 18be 5b30 f0bd 7f14 f6bd dac8 39bd
00000380: fed7 123d 3ab3 f93d 3900 22be 4d49 cdbd
00000390: 5b68 bb3c cad4 2fbe 8ed1 a8bd 362c 143d
000003a0: f01b 383d 680b 0b3e 6eec 86bd 55d6 d2bd
000003b0: 190a 1dbe f884 cebd 8ede 9d3d fda7 57bc
000003c0: f6bc 1cbe 3b3f 7e3a 3a6c e03d 8c99 f93d
000003d0: 607d af3d b753 b7bd fa8a 01be 438c 223e
000003e0: 8124 283d 873e 613d 40b7 b7bd 20d6 cdbb
000003f0: 52e9 4bbe db61 f4bd 7932 febd c6f5 a0bd

model.2.bias f4 [128]
-0.07083285 0.071964905 -0.09235964 -0.08712772 -0.18521328 0.28469777 0.016058218 0.1311413
-0.06316917 -0.13060866 -0.072020836 -0.18374524 -0.13086134 0.038706694 0.56551415 0.12973316
-0.061786994 0.38106695 -0.12233837 -0.09951195 -0.23722008 -0.33453017 0.04632987 0.12424627
-0.1242231 -0.21261023 0.098020196 0.05613404 0.11503606 -0.105050616 -0.15694156 -0.043437004
-0.12305672 0.017286442 -0.6415552 -0.0032372642 0.055432487 -0.0033865736 0.034401342 0.028182775
0.0865224 0.3261499 0.037884433 0.021991344 -0.1371769 0.01352691 0.11871939 0.11353529
0.0072692987 -0.0876499 0.12059592 0.029260734 0.033615075 0.12022168 -0.027746394 -0.12440632
0.16604844 0.0029640046 0.10272761 0.3821667 -0.22376405 -0.08913937 -0.16511388 0.100740604
-0.18397233 -0.047884595 -0.14710966 0.10154481 -0.0061609475 -0.003385387 -0.094742656 -0.12796015
-0.019934969 -0.037064284 -0.037996925 -0.05484034 -0.19079088 -0.20130081 -0.16444977 -0.010361381
-0.20791857 -0.2114906 -0.057013802 -0.016456142 -0.061126456 0.093262546 0.013858452 -0.015514845
-0.067065895 0.007495753 0.014658672 0.102082595 0.043428645 -0.00025130616 -0.13505027 0.1328194
0.093127765 -0.059788283 0.1366492 -0.08864036 0.61057496 0.027096104 0.010004926 -0.1208948
-0.26102838 -0.19487672 0.19384913 0.029721325 0.0628486 0.08458581 -0.023963993 -0.13388473
0.03770889 0.017547397 -0.14135194 0.11693586 0.025122054 -0.12801802 -0.03971278 0.04968481
0.020776289 -0.095486976 -0.12725127 -0.13589093 -0.16066195 -0.10250788 -0.026059818 -0.064878196
00000000: d010 91bd 5662 933d 0d27 bdbd 0570 b2bd
00000010: 8da8 3dbe e8c3 913e 868c 833c e849 063e
00000020: d65e 81bd 47be 05be a97f 93bd b627 3cbe
00000030: 8400 06be e98a 1e3d 89c5 103f c5d8 043e
00000040: 5c14 7dbd 351b c33e 8a8c fabd eccc cbbd
00000050: d2e9 72be 8a47 abbe 64c4 3d3d d474 fe3d
00000060: ae68 febd 7fb6 59be d0be c83d cfec 653d
00000070: 0798 eb3d c724 d7bd 4ab5 20be 00eb 31bd
00000080: 2905 fcbd 4c9c 8d3c f63c 24bf 4828 54bb
00000090: 2d0d 633d 47f1 5dbb 6ce8 0c3d 90df e63c
000000a0: a832 b13d 1ffd a63e b52c 1b3d 3127 b43c
000000b0: 1a78 0cbe f99f 5d3c 2723 f33d 3185 e83d
000000c0: 4c33 ee3b ca81 b3bd fefa f63d 35b4 ef3c
000000d0: f6af 093d c936 f63d 684c e3bc bec8 febd
000000e0: 9a08 2a3e bf3f 423b da62 d23d 5bab c33e
000000f0: 6722 65be b48e b6bd 9d13 29be 1751 ce3d
00000100: 3e63 3cbe a322 44bd eaa3 16be baf6 cf3d
00000110: c6e1 c9bb 5edd 5dbb 7008 c2bd fc07 03be
00000120: a94e a3bc b8d0 17bd aaa2 1bbd 44a0 60bd
00000130: af5e 43be cd21 4ebe 8565 28be c8c2 29bc
00000140: 9be8 54be fe90 58be 4e87 69bd 08cf 86bc
00000150: bc5f 7abd 6f00 bf3d 900e 633c fa31 7ebc
00000160: d859 89bd ef9e f53b ed2a 703c ae10 d13d
00000170: 3ce2 313d bec1 83b9 9e4a 0abe cf01 083e
00000180: c5b9 be3d 8fe4 74bd c5ed 0b3e 1489 b5bd
00000190: a44e 1c3f a6f8 dd3c b3eb 233c b197 f7bd
000001a0: 83a5 85be c38d 47be 6380 463e 237a f33c
000001b0: c4b6 803d 533b ad3d 2350 c4bc 1419 09be
000001c0: a374 1a3d 8fbf 8f3c 90be 10be 117c ef3d
000001d0: c4cc cd3c 2817 03be dea9 22bd 4d82 4b3d
000001e0: 0933 aa3c ad8e c3bd 284e 02be fe26 0bbe
000001f0: 9184 24be a7ef d1bd 667b d5bc dcde 84bd

model.4.weight f4 [256, 128]
-0.083125904 0.020390559 -0.04919724 0.015282312 0.049858823 0.08382188 0.042815097 -0.0679827
-0.05239477 -0.026288334 0.04849192 -0.056776416 0.03980687 0.03134677 -0.037404235 0.012665908
-0.08843212 0.06423073 0.0021552893 0.0390841 -0.02314467 -0.10030642 -0.040591486 -0.0008202997
0.059174597 -0.08819586 -0.104845144 0.124053806 -0.08032876 -0.014939691 0.075611204 0.03811858
-0.12757075 -0.03778535 -0.0008835818 -0.122127876 -0.12560116 0.11800165 0.00501479 0.062618375
0.053324908 0.12461885 -0.026843274 0.052021664 -0.015422996 -0.07099343 -0.12720162 -0.065852396
0.012673336 0.008943938 0.00902089 -0.11465929 0.107929505 -0.049760334 0.031847563 0.03918148
0.07353884 -0.028098438 0.072965294 0.07103585 0.10530842 -0.007731756 0.013626609 -0.06917849
-0.016546946 -0.05335321 -0.025512299 0.053413227 0.06505706 0.011570808 -0.07100654 0.08545706
-0.00028238088 0.07143033 -0.0021130831 0.048932903 0.070346914 -0.01517011 -0.022463238 0.03900515
-0.104897074 0.012906358 -0.08318666 -0.0849331 -0.12286284 -0.060587663 -0.08127106 -0.061639205
0.039852183 0.009396308 0.05871014 -0.07110575 -0.051542323 -0.07526525 -0.024842156 -0.022404743
0.1146445 0.013165716 -0.028080728 0.11039902 0.04588138 -0.04560038 -0.13118172 -0.063892506
0.06927618 -0.09187284 -0.09825977 -0.07461982 -0.0086208 0.018707741 -0.07622342 0.1187738
-0.032427795 0.0033711577 -0.105456285 -0.075736634 -0.06597694 -0.04255918 -0.026764547 0.023039954
-0.018565118 -0.01710163 -0.013011452 -0.037378244 0.029136883 -0.049520183 0.062288363 0.14647786
-0.13504235 0.011245955 -0.062435836 0.0022534023 0.022523023 -0.026073715 -0.03963341 0.07400503
-0.07736052 -0.04432074 -0.030043738 0.02362019 -0.08023841 -0.07993546 -0.011841231 -0.08402582
-0.084222764 0.011405442 -0.06303146 -0.0067113256 -0.07246703 -0.016806772 0.005677043 -0.12329661
0.020617321 0.0021952468 -0.11981755 -0.0027688688 -0.061490834 0.001754468 -0.050159186 0.032385394
0.0490212 -0.1089997 -0.082788505 0.004541943 0.051680602 -0.04568182 -0.008918737 -0.022893293
-0.037068818 -0.020604456 0.01784662 0.04329222 -0.018008357 -0.016396988 -0.09754265 0.060847204
0.08821652 -0.067725055 0.0060437 0.031447817 -0.06768354 -0.07086245 -0.032407366 0.0582282
-0.058718167 -0.00050382165 0.07934414 -0.11118059 -0.028846905 -0.041788843 0.005222321 -0.08356822
0.0323446 0.06244539 0.0773481 -0.12143898 0.059185714 0.08082712 0.012048593 0.0832038
0.022677228 -0.08398128 0.021354416 0.03241886 0.0077635758 -0.05862753 -0.040292077 0.002446024
-0.08229099 0.024540262 -0.056799643 -0.0008485885 0.011475004 0.053256884 -0.03297855 0.058066703
-0.02521532 -0.07285713 0.052107614 -0.13496813 -0.08013694 -0.037049767 -0.011709764 -0.11164949
-0.0123753995 -0.072235584 0.034398876 -0.047958657 0.022844227 -0.015533348 0.0051966324 -0.04915747
-0.08659594 -0.1055716 -0.045687623 0.06481687 -0.048589025 -0.11525889 -0.07542125 0.03755496
0.06103289 -0.013017434 -0.030774385 -0.066590495 -0.06647768 -0.025536912 0.012056253 0.035556283
0.057526864 -0.09362608 0.08391686 0.007419573 0.008226138 0.08568839 0.05826728 0.020853745
00000000: ea3d aabd 1a0a a73c 0c83 49bd aa62 7a3c
00000010: c438 4c3d ceaa ab3d e25e 2f3d 843a 8bbd
00000020: e69b 56bd a25a d7bc 779f 463d 638e 68bd
00000030: 870c 233d 7865 003d 2f35 19bd ab84 4f3c
00000040: e61b b5bd 678b 833d c13f 0d3b a616 203d
00000050: e499 bdbc 746d cdbd 4243 26bd 6209 57ba
00000060: 1061 723d 08a0 b4bd 0db9 d6bd ec0f fe3d
00000070: 6883 a4bd 9bc5 74bc 0cda 9a3d 3a22 1c3d
00000080: e8a1 02be d0c4 1abd 2ca0 67ba 2e1e fabd
00000090: 979d 00be d9aa f13d 1c53 a43b 103e 803d
000000a0: 386b 5a3d 2b38 ff3d 6de6 dbbc ab14 553d
000000b0: bcb0 7cbc 0165 91bd 2441 02be 9fdd 86bd
000000c0: d3a3 4f3c 9889 123c 5bcc 133c 7dd2 eabd
000000d0: 250a dd3d 7ed1 4bbd 9772 023d c27c 203d
000000e0: 889b 963d b22e e6bc d46e 953d 3e7b 913d
000000f0: f1ab d73d ac5a fdbb 2442 5f3c 74ad 8dbd
00000100: 768d 87bc e588 5abd 2bff d0bc d4c7 5a3d
00000110: a33c 853d 7c93 3d3c e06b 91bd 1c04 af3d
00000120: 850c 94b9 114a 923d a77b 0abb de6d 483d
00000130: 0b12 903d 0e8c 78bc d304 b8bc ddc3 1f3d
00000140: 47d4 d6bd 3075 533c c55d aabd 68f1 adbd
00000150: 839f fbbd c52a 78bd 7171 a6bd 6479 7cbd
00000160: 0b3c 233d f9f2 193c 0b7a 703d e49f 91bd
00000170: 0b1e 53bd ab24 9abd c781 cbbc 278a b7bc
00000180: bcca ea3d 04b5 573c 8e09 e6bc e218 e23d
00000190: 1dee 3b3d 77c7 3abd 8054 06be 13da 82bd
000001a0: abe0 8d3d d427 bcbd 6b3c c9bd 47d2 98bd
000001b0: 423e 0dbc fa40 993c 061b 9cbd ae3f f33d
000001c0: 02d3 04bd a4ee 5c3b 77f9 d7bd cf1b 9bbd
000001d0: eb1e 87bd 8952 2ebd 5341 dbbc 49be bc3c
000001e0: e015 98bc b818 8cbc fc2d 55bc ee19 19bd
000001f0: 79b0 ee3c add5 4abd 1522 7f3d 4bfe 153e
00000200: 8b48 0abe f440 383c b8bc 7fbd d1ad 133b
00000210: 3482 b83c 8b98 d5bc a456 22bd f38f 973d
00000220: 316f 9ebd aa89 35bd 491e f6bc 217f c13c
00000230: 0954 a4bd 34b5 a3bd b901 42bc bb15 acbd
00000240: fc7c acbd e4dd 3a3c a316 81bd aeea dbbb
00000250: 9869 94bd 5bae 89bc 7d06 ba3b ef82 fcbd
00000260: a8e5 a83c 21de 0f3b e762 f5bd e975 35bb
00000270: d0dd 7bbd 2df6 e53a b873 4dbd 8ca6 043d
00000280: 74ca 483d 3c3b dfbd 058d a9bd 94d4 943b
00000290: 0aaf 533d dc1c 3bbd e51f 12bc b78a bbbc
000002a0: 79d5 17bd adca a8bc 1333 923c 2f53 313d
000002b0: 4386 93bc fa52 86bc 71c4 c7bd eb3a 793d
000002c0: ddaa b43d 6fb3 8abd 3b0a c63b 6dcf 003d
000002d0: ab9d 8abd 5520 91bd 96bd 04bd b180 6e3d
000002e0: 7682 70bd e612 04ba 2e7f a23d a6b2 e3bd
000002f0: 5850 ecbc c72a 2bbd 0120 ab3b d125 abbd
00000300: c57b 043d bdc6 7f3d ae68 9e3d 00b5 f8bd
00000310: b86c 723d b088 a53d 7667 453c c166 aa3d
00000320: 98c5 b93c 61fe abbd 75ef ae3c a3c9 043d
00000330: 9865 fe3b 6c23 70bd 4e09 25bd 794d 203b
00000340: 2e88 a8bd a908 c93c bea6 68bd cf73 5eba
00000350: a801 3c3c e423 5a3d 8414 07bd 5ad7 6d3d
00000360: 5c90 cebc 1e36 95bd cb6e 553d 1635 0abe
00000370: d61e a4bd 7fc1 17bd 4fda 3fbc 7da8 e4bd
00000380: 30c2 4abc 40f0 93bd d6e5 0c3d 4c70 44bd
00000390: d123 bb3c 957f 7ebc 8348 aa3b 5859 49bd
000003a0: 3659 b1bd ec35 d8bd f222 3bbd b5be 843d
000003b0: 4905 47bd da0c ecbd 7576 9abd 3bd3 193d
000003c0: a0fd 793d 1347 55bc 901a fcbc 9960 88bd
000003d0: 7325 88bd c932 d1bc 9787 453c 77a3 113d
000003e0: 4aa1 6b3d 08bf bfbd 9adc ab3d e41f f33b
000003f0: ecc6 063c 657d af3d aca9 6e3d 79d5 aa3c

model.4.bias f4 [256]
-0.03548719 -0.0021367855 -0.03848949 -0.006153524 0.2896339 -0.03704915 -0.07457138 0.021847323
-0.08819815 -0.06230072 -0.104875326 0.3607794 -0.022758361 0.035847064 -0.06579123 -0.1353096
0.0443967 -0.07085596 -0.07698628 -0.060256936 -0.035937045 -0.044557057 0.023744833 0.2953899
0.32961193 0.0142953675 -0.03142397 -0.026870644 -0.01563412 -0.13751556 -0.09728206 0.017504875
-0.0031389347 0.44056934 -0.0065409937 -0.06932174 0.039506502 0.036434997 -0.11783359 -0.0763885
-0.091552585 -0.10525881 0.07038195 0.014677452 -0.07479527 -0.011318178 -0.016377056 -0.08234956
0.02257251 -0.028137285 -0.080590546 -0.04708898 0.014241701 -0.00084945874 0.51285523 -0.023785405
-0.065185204 -0.07259564 -0.11754463 -0.08513765 0.014558331 -0.031586792 0.47732544 -0.07850219
0.04855511 0.011305456 0.1269046 0.028465921 0.16068897 -0.00999647 0.011908304 0.09654836
-0.030454442 -0.11939449 -0.0071622883 -0.024809739 -0.13245605 -0.108934045 0.4440171 -0.05519944
-0.1272962 -0.11738653 0.01960784 -0.09280666 0.4164291 0.008167136 0.067676626 -0.0066175302
0.099183165 0.023272082 -0.11312718 -0.13875072 0.014179805 -0.12249856 -0.09434854 -0.040873587
-0.028207188 0.10482794 -0.111460544 -0.020665659 0.020529687 0.38504142 0.059300955 -0.0057276674
0.010022919 0.28631967 -0.10947198 -0.12734511 -0.13604043 -0.004972422 -0.01998161 0.017272094
0.027490776 0.015580067 0.03430499 0.036346026 -0.0010124686 0.030305235 0.28605407 0.49776065
-0.11531148 0.018621262 -0.0071241725 -0.002676129 -0.02352388 -0.110279225 -0.10913369 0.07182257
0.009835733 -0.004764649 0.08056023 0.28209847 -0.115435414 -0.0038073866 -0.06747073 -0.056490388
-0.0114116045 0.076743595 0.18042114 -0.036194474 -0.015835067 -0.10009568 0.010521978 -0.054632094
0.0082445545 -0.06947644 -0.09430562 -0.084923945 -0.050406344 -0.03559478 0.040824395 -0.06945803
-0.07452972 0.02398083 -0.030082637 -0.12796694 0.035505388 0.0047486685 -0.096100055 -0.077442646
-0.11508837 -0.08589824 -0.09610677 -0.08530131 -0.0824024 -0.08924567 -0.06056779 -0.14742492
-0.05128249 -0.0018468203 -0.08227275 -0.14039178 -0.094424024 -0.037531637 0.044812363 -0.01472436
0.27602518 -0.016556378 0.012384094 -0.00016264827 0.059786916 -0.12312039 0.010610871 -0.09594533
0.030422283 0.007611642 -0.048762813 0.022144657 -0.0104994 -0.051698517 -0.14639461 -0.13143563
0.012204904 -0.070812665 -0.12859012 -0.05976337 -0.1200683 -0.10735908 -0.040850945 -0.1148878
-0.1281155 0.033566177 -0.050698895 -0.039244585 -0.012806757 0.0320677 -0.06442446 -0.42840055
-0.11223458 0.018222556 0.0117338365 0.0219798 -0.08748538 0.01515857 0.3948408 -0.1190514
-0.020759774 -0.01725493 -0.014592916 -0.08033366 -0.06835514 -0.0031033517 -0.0073246527 -0.009120408
0.35225755 0.031057738 -0.1101746 0.055266317 -0.027009165 -0.14127482 -0.001411017 0.010947848
0.020290395 -0.14119945 -0.12306039 0.050208032 0.4096648 -0.007758017 -0.055792123 0.03173449
-0.11005638 0.013122522 -0.09135471 -0.06709939 -0.042743605 0.1332383 0.07736343 -0.1325814
-0.09055736 -0.08450237 -0.078590624 0.43180957 -0.05260602 0.0043914486 -0.061667204 -0.0115994
00000000: 045b 11bd 5009 0cbb 28a7 1dbd 80a3 c9bb
00000010: e54a 943e d9c0 17bd e1b8 98bd 28f9 b23c
00000020: 3ba1 b4bd 0a2f 7fbd e0c8 d6bd 14b8 b83e
00000030: be6f babc 5fd4 123d 8dbd 86bd 9a8e 0abe
00000040: 50d9 353d ee1c 91bd fcaa 9dbd facf 76bd
00000050: b932 13bd 7681 36bd 8684 c23c 583d 973e
00000060: e5c2 a83e 1e37 6a3c 6cb6 00bd d31f dcbc
00000070: 2013 80bc e1d0 0cbe d13b c7bd 6266 8f3c
00000080: 96b6 4dbb 4e92 e13e d555 d6bb 8ef8 8dbd
00000090: 92d1 213d dd3c 153d bd52 f1bd 9371 9cbd
000000a0: ec7f bbbd ee91 d7bd 6924 903d b279 703c
000000b0: 432e 99bd e16f 39bc 2d29 86bc e3a6 a8bd
000000c0: fce9 b83c 2a80 e6bc a80c a5bd 60e0 40bd
000000d0: 0656 693c 36ae 5eba 7b4a 033f 9cd9 c2bc
000000e0: d27f 85bd 06ad 94bd 3dbb f0bd a65c aebd
000000f0: 1186 6e3c 2761 01bd 0064 f43e c2c5 a0bd
00000100: b9e1 463d 853a 393c 48f3 013e 5d31 e93c
00000110: a68b 243e 3cc8 23bc 0c1b 433c 26bb c53d
00000120: 987b f9bc 1985 f4bd a1b1 eabb cb3d cbbc
00000130: 8fa2 07be d018 dfbd 3656 e33e cf18 62bd
00000140: ef59 02be 5968 f0bd 9fa0 a03c 6b11 bebd
00000150: 3236 d53e 74cf 053c 0b9a 8a3d ded7 d8bb
00000160: 8b20 cb3d 18a5 be3c 39af e7bd ab14 0ebe
00000170: 6a52 683c 86e0 fabd cf39 c1bd 106b 27bd
00000180: c312 e7bc 08b0 d63d 6d45 e4bd 074b a9bc
00000190: e02d a83c 2624 c53e 8fe5 723d 28af bbbb
000001a0: 2b37 243c 7e98 923e d832 e0bd c266 02be
000001b0: 2f4e 0bbe b3ef a2bb 79b0 a3bc 357e 8d3c
000001c0: 5634 e13c 8a43 7f3c 6483 0c3d 92df 143d
000001d0: cfb4 84ba af42 f83c ae75 923e 7cda fe3e
000001e0: 6d28 ecbd 9e8b 983c e471 e9bb ff61 2fbb
000001f0: 27b5 c0bc 13da e1bd 7c81 dfbd b617 933d
00000200: 0e26 213c c620 9cbb c3fc a43d 366f 903e
00000210: 6769 ecbd 5985 79bb 182e 8abd 7762 67bd
00000220: bdf7 3abc bf2b 9d3d 52c0 383e a840 14bd
00000230: 8bb8 81bc f7fe ccbd 6064 2c3c e7c5 5fbd
00000240: 2b14 073c aa49 8ebd 4e23 c1bd 9bec adbd
00000250: e276 4ebd d5cb 11bd 7b37 273d 0340 8ebd
00000260: 0aa3 98bd 7273 c43c dd6f f6bc c409 03be
00000270: 196e 113d b89a 9b3b 1bd0 c4bd 409a 9ebd
00000280: 74b3 ebbd 6beb afbd a0d3 c4bd 74b2 aebd
00000290: 97c2 a8bd 6fc6 b6bd ee15 78bd 8ff6 16be
000002a0: 970d 52bd 0211 f2ba 9e7e a8bd ddc2 0fbe
000002b0: 6261 c1bd c6ba 19bd 2b8d 373d 713e 71bc
000002c0: 2c53 8d3e 3ea1 87bc a8e6 4a3c 908c 2ab9
000002d0: 20e3 743d 8b26 fcbd 38d9 2d3c fc7e c4bd
000002e0: 2738 f93c 156b f93b 84bb 47bd b668 b53c
000002f0: ad05 2cbc d3c1 53bd 78e8 15be 1097 06be
00000300: 14f7 473c 3b06 91bd 21ad 03be 6fca 74bd
00000310: 5ee6 f5bd 14df dbbd 5253 27bd 4b4a ebbd
00000320: b630 03be b07c 093d a5a9 4fbd eebe 20bd
00000330: 6fd3 51bc 6c59 033d f9f0 83bd 5157 dbbe
00000340: 3edb e5bd 7847 953c 473f 403c fb0e b43c
00000350: 892b b3bd a75b 783c 9328 ca3e 38d1 f3bd
00000360: 6710 aabc 365a 8dbc 2017 6fbc f985 a4bd
00000370: c8fd 8bbd 9a61 4bbb a403 f0bb c46d 15bc
00000380: 1a5b b43e cc6c fe3c 38a3 e1bd ef5e 623d
00000390: 5342 ddbc 59aa 10be e0f1 b8ba 9a5e 333c
000003a0: 0b38 a63c 9796 10be 1607 fcbd f0a6 4d3d
000003b0: 96bf d13e f736 febb 4886 64bd 06fc 013d
000003c0: 3d65 e1bd d9ff 563c 2e18 bbbd 686b 89bd
000003d0: eb13 2fbd 9f6f 083e b870 9e3d 6bc3 07be
000003e0: 2376 b9bd 940f adbd 1ff4 a0bd 2516 dd3e
000003f0: 6979 57bd 24e6 8f3b c096 7cbd 690b 3ebc

model.6.weight f4 [256, 256]
-0.02458586 -0.028896399 -0.02504418 -0.04113993 0.007598229 0.049971703 0.0070545524 -0.003901486
0.10320668 -0.022173973 -0.035849847 -0.11952228 0.016296662 -0.06852511 -0.044578396 0.09856318
0.0057565793 0.057448797 -0.10583287 0.025836222 -0.0984725 0.0068957508 -0.021376679 0.01724375
0.048858777 -0.049372256 0.10365137 0.03213578 0.04025074 0.013207685 -0.0008050195 -0.020480508
-0.037367303 -0.094680995 -0.097751975 0.03945566 -0.029792158 0.010986299 -0.047432907 0.0054966
-0.0113141835 0.06015622 -0.033462472 0.030178517 -0.0534472 0.0678631 0.012375319 0.015789237
0.022512898 0.006537806 -0.048567206 0.1161936 -0.0009568956 -0.10388962 -0.03741495 0.07304013
0.012064563 -0.039206892 -0.03264037 -0.09431567 -0.10217164 0.054812253 -0.005357939 -0.086195104
-0.01843591 -0.06212 0.0619977 -0.044387087 0.10104428 -0.04223066 -0.08070479 -0.06576006
-0.015489153 0.04421352 -0.066285215 0.045533746 -0.045996614 0.0056178696 0.03517521 0.09685537
0.09627002 0.10421877 0.038910825 -0.0401867 -0.020685524 0.027576614 -0.025885053 -0.072998144
-0.050118264 0.03218275 -0.018766802 0.055102956 2.1887856e-06 0.041367672 0.06263644 -0.059092857
0.00079778215 -0.05177919 -0.040432323 0.01652779 0.012571396 -0.0454424 0.057314016 -0.075595476
0.011606454 0.04992062 -0.0045787026 0.0146402 0.052893497 -0.021434464 -0.008646183 0.03613679
0.057968218 0.067592524 0.037053533 -0.021729866 0.0021994738 -0.043389127 -0.09225665 -0.01220962
-0.041141666 -0.042026807 -0.0066706613 0.05732908 -0.043898072 -0.00058906764 -0.0106323175 -0.045659356
-0.03851281 -0.04698098 -0.024635822 -0.043679398 -0.014996476 0.040083684 -0.092546254 0.10138035
0.119932175 0.017081492 -0.028901244 0.09493242 -0.04764873 0.10491912 -0.11432013 0.041858695
-0.06815215 0.07922822 -0.060148958 -0.06829265 -0.013878505 -0.0575485 -0.09553242 0.11267026
-0.025109798 -0.010006979 -0.010883039 -0.028347714 0.02742029 -0.027506502 -0.030460685 -0.0002161228
0.0018768514 0.026050456 0.020264506 -0.0073658605 -0.011006696 0.008170257 -0.028762067 0.120727524
0.099508785 0.06037615 -0.042266775 0.09942408 0.06707801 -0.009670782 -0.044076107 -0.013248093
0.060267847 0.059191003 0.111103006 -0.008911766 0.030079022 -6.068937e-06 -0.011729333 0.0006088861
0.0079131685 0.052898012 0.10622676 -0.0641653 -0.07580211 0.006471627 0.06274313 -0.054310016
0.00063709466 -0.048814468 0.019589633 -0.040022954 0.056881167 0.06538738 0.046780616 0.022070333
-0.025293339 -0.041301668 -0.0057773218 -0.014619671 -0.01739262 0.008967757 0.05443834 -0.060189486
0.052261338 0.0062635643 -0.041609585 -0.05269803 0.061113995 -0.0320384 -0.077376135 0.06939444
0.048899807 0.11995659 0.016213633 -0.033355474 -0.06433797 0.018779606 -0.0021643464 -0.009933889
0.008849242 -0.07890465 0.006359879 -0.061985765 -0.041759934 0.07722634 0.030215815 -0.08842717
0.024162322 0.11778117 0.06201128 0.03213031 -0.1323601 0.031845935 -0.066974625 -0.060681984
0.0041963863 -0.062553704 0.038945056 0.024398051 -0.04597924 0.07586944 -0.06813535 -0.018040234
-0.06365147 -0.037435543 -0.09827318 -0.04282194 -0.058276184 0.039882258 -0.101942666 -0.081949666
00000000: 4968 c9bc 24b8 ecbc 7429 cdbc 5882 28bd
00000010: 91fa f83b 21af 4c3d e029 e73b 13b0 7fbb
00000020: 065e d33d 31a6 b5bc 4ad7 12bd 19c8 f4bd
00000030: 9480 853c e556 8cbd d697 36bd 7edb c93d
00000040: b0a1 bc3b 6e4f 6b3d e7be d8bd 7ca6 d33c
00000050: f3ab c9bd c0f5 e13b 251e afbc c442 8d3c
00000060: 2420 483d 903a 4abd 2b47 d43d cfa0 033d
00000070: f6dd 243d 0c65 583c f207 53ba bdc6 a7bc
00000080: 750e 19bd 1ce8 c1bd 3032 c8bd 429c 213d
00000090: af0e f4bc e1ff 333c 0249 42bd d31c b43b
000000a0: 205f 39bc 5e66 763d f20f 09bd f038 f73c
000000b0: 74eb 5abd cffb 8a3d dac1 4a3c 6e58 813c
000000c0: f86c b83c 173b d63b 68ee 46bd e9f6 ed3d
000000d0: 2dd8 7aba 15c4 d4bd 6b40 19bd 1096 953d
000000e0: 72aa 453c 6897 20bd e9b1 05bd 9328 c1bd
000000f0: 5d3f d1bd d082 603d a691 afbb 0f87 b0bd
00000100: e806 97bc 8b71 7ebd 4df1 7d3d 3ccf 35bd
00000110: 4ef0 ce3d 0efa 2cbd 8e48 a5bd 36ad 86bd
00000120: 37c6 7dbc 3c19 353d 8bc0 87bd 9881 3a3d
00000130: f266 3cbd 1b16 b83b e213 103d 1c5c c63d
00000140: 3729 c53d a770 d53d f560 1f3d cf9a 24bd
00000150: b074 a9bc 5ae8 e13c e40c d4bc 0d80 95bd
00000160: cf48 4dbd 0fd2 033d d6bc 99bc a3b3 613d
00000170: 0de3 1236 2671 293d 8947 803d 5a0b 72bd
00000180: 4122 513a 6a16 54bd 5d9c 25bd 4a65 873c
00000190: 42f8 4d3c cf21 3abd 1ac2 6a3d cdd1 9abd
000001a0: ff28 3e3c 9079 4c3d f108 96bb 73dd 6f3c
000001b0: daa6 583d 5497 afbc b8a8 0dbc 2c04 143d
000001c0: 1570 6d3d f36d 8a3d 72c5 173d d502 b2bc
000001d0: 0c25 103b ccb8 31bd 0ef1 bcbd dc0a 48bc
000001e0: 2a84 28bd 4d24 2cbd 9095 dabb e6d1 6a3d
000001f0: 77ce 33bd a96b 1aba 2c33 2ebc 4e05 3bbd
00000200: 9cbf 1dbd 216f 40bd 10d1 c9bc 2be9 32bd
00000210: c7b3 75bc ca2e 243d e488 bdbd 80a0 cf3d
00000220: 009f f53d 7cee 8b3c 4dc2 ecbc ee6b c23d
00000230: 512b 43bd d6df d63d ac20 eabd 0674 2b3d
00000240: 5b93 8bbd 6842 a23d c15e 76bd 04dd 8bbd
00000250: ab62 63bc fab7 6bbd 80a6 c3bd aabf e63d
00000260: 10b3 cdbc 50f4 23bc c64e 32bc 7739 e8bc
00000270: 84a0 e03c 5155 e1bc b088 f9bc 069f 62b9
00000280: af00 f63a c467 d53c c001 a63c 515d f1bb
00000290: 6e55 34bc 8bdc 053c 6d9e ebbc fe3f f73d
000002a0: 43cb cb3d fb4c 773d ed1f 2dbd da9e cb3d
000002b0: 3260 893d 3372 1ebc 2689 34bd 880e 59bc
000002c0: 6bdb 763d 4472 723d f989 e33d a802 12bc
000002d0: 4868 f63c c6a3 cbb6 632c 40bc a89d 1f3a
000002e0: 3ca6 013c 96ab 583d 6a8d d93d 1969 83bd
000002f0: 233e 9bbd f10f d43b 787f 803d 2e74 5ebd
00000300: b302 273a aef1 47bd 707a a03c 1cef 23bd
00000310: 3afc 683d d2e9 853d 089d 3f3d d8cc b43c
00000320: fa33 cfbc f02b 29bd b04f bdbb 5887 6fbc
00000330: f87a 8ebc 80ed 123c bdfa 5e3d 4089 76bd
00000340: fc0f 563d 963e cd3b d06e 2abd e4d9 57bd
00000350: ab52 7a3d b33a 03bd 6177 9ebd ac1e 8e3d
00000360: 2a4b 483d cdab f53d 74d2 843c c09f 08bd
00000370: a0c3 83bd b0d7 993c b5d7 0dbb c0c1 22bc
00000380: 69fc 103c c398 a1bd 8866 d03b c9e4 7dbd
00000390: 770c 2bbd d828 9e3d 2887 f73c 4e19 b5bd
000003a0: 10f0 c53c 4137 f13d 8aff 7d3d 129b 033d
000003b0: 6889 07be e270 023d fe29 89bd ac8d 78bd
000003c0: d781 893b 281c 80bd da84 1f3d 6cde c73c
000003d0: ba54 3cbd 7061 9b3d 8c8a 8bbd 1dc9 93bc
000003e0: b45b 82bd 0356 19bd 7343 c9bd 0f66 2fbd
000003f0: 02b3 6ebd 945b 233d 51c7 d0bd 3ad5 a7bd

model.6.bias f4 [256]
-0.08399843 -0.029375572 -0.09513353 0.024510048 -0.089095436 -0.10431878 0.069745116 -0.05344642
0.008164518 -0.110633165 -0.08160542 -0.075945966 -0.085995845 -0.0959934 0.03510462 -0.07257542
-0.11608808 -0.079133324 -0.028705373 -0.09077584 -0.018431643 -0.08239441 -0.011640345 0.011376633
-0.050848644 -0.112282254 -0.10099505 -0.014047973 -0.09233178 -0.07262028 -0.08251202 0.0017867689
-0.12970287 0.4630628 0.011963863 -0.0026901227 -0.041904446 -0.041841473 0.007097778 0.02328175
0.03394769 -0.108717255 -0.099247634 -0.00053674023 -0.05275061 -0.037911844 0.0061735404 0.31438118
-0.0628245 -0.04172736 0.016150516 -0.008229129 -0.113423176 -0.0069379495 -0.08212497 -0.061461367
-0.058738712 0.012660258 -0.081945166 0.01081292 -0.10480085 -0.1417414 -0.07097047 -0.10120161
0.0030746143 -0.013457776 -0.08732751 0.0021829966 -0.053074446 -0.0926853 -0.09905674 -0.049309984
-0.03840031 -0.09759469 -0.10360633 -0.10710762 -0.031383503 -0.06809365 -0.10269253 -0.035234474
-0.026295274 -0.06958972 -0.09473169 0.31544474 -0.026365563 -0.06888986 -0.020158652 -0.1119952
-0.34022576 -0.074261546 -0.02282034 -0.05801404 -0.121649474 0.03085001 0.06556005 -0.08485411
0.379596 -0.029033966 0.02599818 -0.080273464 -0.1122529 -0.0031938732 0.014790923 -0.10371936
-0.015712634 -0.031007687 -0.013822272 -0.07464635 -0.10718996 0.0052440986 -0.048009682 -0.047750507
0.012808812 -0.07591787 -0.122564994 0.0005377189 0.35182527 -0.082010284 0.019614518 -0.016712958
-0.07784371 0.013220726 -0.046712402 0.22846116 -0.0904922 0.24822405 0.03482916 0.0068401243
0.0013131783 -0.06198925 -0.05154203 0.16963466 -0.080763765 -0.059128925 -0.030769695 -0.027307048
-0.012622249 -0.09523313 0.104261756 -0.10097203 -0.04931175 -0.07591992 -0.10505086 -0.015673084
0.11983057 -0.14636287 -0.086407654 -0.11367914 -0.07129606 -0.10868389 -0.038569566 0.00062308955
-0.088733956 -0.050610505 -0.018261049 -0.112682976 -0.03342909 0.00050897116 -0.070874475 -0.08247505
-0.064227514 -0.004566122 0.006500017 -0.051432595 -0.09785055 -0.11706538 0.122870885 -0.103221245
0.022219265 -0.10930863 0.37825033 -0.03786535 0.3005211 -0.08214667 -0.030905658 -0.019185267
-0.22558385 -0.08378221 -0.026674358 -0.1150248 -0.08230271 -0.0131692365 -0.02863079 -0.040143512
-0.03623975 -0.06750557 -0.021645147 -0.05599436 0.11071837 -0.11628239 -0.079428665 0.29477414
0.00028218763 -0.07124798 -0.0055271825 -0.09553319 -0.03088336 -0.15279551 -0.08432814 0.016706116
-0.020939749 -0.01593013 -0.06365569 -0.107940406 0.18548712 0.093388185 -0.087146975 -0.08466568
-0.011552553 -0.0523204 -0.031542603 -0.022078136 -0.03712482 -0.059384674 -0.1137045 -0.015928455
0.008620765 0.29168567 -0.07489003 0.12582293 -0.06314314 -0.029181713 -0.061012566 -0.051731747
-0.056984223 -0.07480938 0.25254378 -0.078261614 -0.07495315 0.056515887 -0.04062304 -0.04389836
-0.036750395 -0.054821584 -0.005151077 0.0003680113 -0.048863143 0.35425982 0.0063105193 -0.0010457847
-0.073527604 -0.11178723 -0.07197302 0.40964752 -0.09317244 -0.09009128 -0.09386888 0.06705247
-0.06001034 -0.012481386 0.037556153 -0.116743945 -0.09566716 -0.04079948 0.28682163 -0.09056216
00000000: 5e07 acbd 0aa5 f0bc 5ed5 c2bd 4cc9 c83c
00000010: ab77 b6bd 16a5 d5bd 87d6 8e3d a2ea 5abd
00000020: 78c4 053c a493 e2bd be20 a7bd 8f89 9bbd
00000030: 971e b0bd 3098 c4bd ddc9 0f3d 6ca2 94bd
00000040: 96bf edbd a710 a2bd 8827 ebbc afe8 b9bd
00000050: f5fd 96bc 67be a8bd 25b7 3ebc 0f65 3a3c
00000060: ab46 50bd 3df4 e5bd 7ed6 cebd 7829 66bc
00000070: 7218 bdbd f1b9 94bd 10fc a8bd 0432 ea3a
00000080: d4d0 04be 9116 ed3e 1404 443c c54c 30bb
00000090: ffa3 2bbd f761 2bbd 7a94 e83b 5eb9 be3c
000000a0: bc0c 0b3d 27a7 debd 5842 cbbd 07b4 0cba
000000b0: 0611 58bd 7349 1bbd 694b ca3b 92f6 a03e
000000c0: 22aa 80bd 4fea 2abd 164e 843c 78d3 06bc
000000d0: 694a e8bd bd57 e3bb 2331 a8bd eabe 7bbd
000000e0: 0198 70bd f96c 4f3c ded2 a7bd ac28 313c
000000f0: d4a1 d6bd a824 11be f758 91bd ca42 cfbd
00000100: 787f 493b 017e 5cbc c4d8 b2bd 9b10 0f3b
00000110: 9764 59bd cad1 bdbd 43de cabd 44f9 49bd
00000120: a549 1dbd badf c7bd 8e2f d4bd 3d5b dbbd
00000130: fd8b 00bd af74 8bbd 7650 d2bd 0652 10bd
00000140: 3069 d7bc 0e85 8ebd b002 c2bd f981 a13e
00000150: 98fc d7bc 2016 8dbd c223 a5bc bd5d e5bd
00000160: 1232 aebe 7016 98bd b9f1 babc 21a0 6dbd
00000170: 5c23 f9bd 29b9 fc3c 5944 863d fec7 adbd
00000180: 685a c23e a4d8 edbc 23fa d43c 6a66 a4bd
00000190: d9e4 e5bd 4d50 51bb a155 723c d16a d4bd
000001a0: c8b7 80bc d503 febc d076 62bc 30e0 98bd
000001b0: 6986 dbbd b0d6 ab3b cda5 44bd 0996 43bd
000001c0: 0ddc 513c d47a 9bbd 5b03 fbbd b4f5 0c3a
000001d0: 7122 b43e 02f5 a7bd a0ae a03c 9de9 88bc
000001e0: 866c 9fbd be9b 583c 8155 3fbd b9f1 693e
000001f0: f953 b9bd 722e 7e3e 05a9 0e3d 1f23 e03b
00000200: f41e ac3a 71e8 7dbd bc1d 53bd b5b4 2d3e
00000210: 7967 a5bd 2c31 72bd ba10 fcbc 08b3 dfbc
00000220: 8dcd 4ebc 9609 c3bd 3087 d53d 6cca cebd
00000230: 1efb 49bd e77b 9bbd e824 d7bd d764 80bc
00000240: bb69 f53d 26e0 15be 7ff6 b0bd 9cd0 e8bd
00000250: ab03 92bd a995 debd 1ffb 1dbd d556 233a
00000260: 26ba b5bd f64c 4fbd 3298 95bc 55c6 e6bd
00000270: f1ec 08bd 7a6c 053a a326 91bd aee8 a8bd
00000280: b789 83bd 689f 95bb 18fe d43b fcaa 52bd
00000290: df65 c8bd f9bf efbd bba3 fb3d a965 d3bd
000002a0: 2d05 b63c 34dd dfbd 07aa c13e b218 1bbd
000002b0: e7dd 993e 833c a8bd dd2d fdbc 6c2a 9dbc
000002c0: 74ff 66be 0296 abbd 2f84 dabc 1f92 ebbd
000002d0: 538e a8bd c8c3 57bc 1e8b eabc 866d 24bd
000002e0: 2270 14bd 5c40 8abd 2a51 b1bc 585a 65bd
000002f0: 50c0 e23d 7625 eebd 7fab a2bd a3ec 963e
00000300: 95f2 9339 76ea 91bd 5e1d b5bb e8a6 c3bd
00000310: 1aff fcbc 6d76 1cbe 3bb4 acbd 44db 883c
00000320: d689 abbc e77f 82bc ea5d 82bd dc0f ddbd
00000330: 56f0 3d3e 4e42 bf3d 1d7a b2bd 3365 adbd
00000340: eb46 3dbc ea4d 56bd d132 01bd 35dd b4bc
00000350: 3210 18bd 583d 73bd e8dd e8bd 647c 82bc
00000360: 1c3e 0d3c d357 953e f25f 99bd bad7 003e
00000370: 3151 81bd 7d0e efbc 50e8 79bd abe4 53bd
00000380: 4a68 69bd a935 99bd 6b4d 813e a047 a0bd
00000390: 0981 99bd 347d 673d 5864 26bd c4ce 33bd
000003a0: 9587 16bd 998c 60bd 5eca a8bb a4f1 c039
000003b0: b824 48bd 8b61 b53e 79c8 ce3b b612 89ba
000003c0: a495 96bd b4f0 e4bd 9766 93bd 52bd d13e
000003d0: 31d1 bebd c781 b8bd 543e c0bd ce52 893d
000003e0: 67cd 75bd ba7e 4cbc 7bd4 193d 7317 efbd
000003f0: 25ed c3bd 5b1d 27bd 49da 923e a778 b9bd

model.8.weight f4 [512, 256]
0.013636444 0.0101717375 -0.03986828 -0.007930082 0.014788497 0.06250764 0.0008778309 -0.004528475
-0.038049154 0.11452117 0.11189458 0.0028127357 0.0782809 -0.0044811363 -0.07890709 0.008398625
-0.07833047 -0.0019650012 0.078181244 -0.10395809 -0.01336195 -0.045260854 0.037154745 -0.0878562
0.06106373 0.063992456 0.013775927 0.09852772 -0.09350273 0.027064731 0.016363505 0.012138526
0.09182487 -0.025886256 -0.044744816 0.11728156 -0.0577219 0.11147115 -0.008618201 -0.06212137
0.040211946 0.00022674947 -0.056045208 -0.019434461 0.07360668 -0.009582842 -0.094157815 -0.031389747
-0.04655681 0.0007035175 0.012481089 0.037705537 0.047098756 0.01315681 0.04842877 0.09424441
-0.088036634 0.011092567 0.04271257 0.011447461 -0.018958282 -0.03555252 -0.028770754 -0.013054744
-0.074415244 0.066113316 -0.09583256 0.07677713 0.030501472 -0.08951186 -0.031634532 0.041881517
-0.02357365 0.07125888 -0.036225725 -0.003294451 -0.075254634 0.022666432 0.01928 -0.07548183
0.078078486 0.089728974 -0.0734361 0.019039746 -0.012263953 0.11597588 -0.044510804 0.019207887
-0.0062694703 0.041637745 0.09432529 -0.087618135 0.0010067858 -0.038890302 0.037944786 -0.094467536
0.04869409 0.008448028 -0.05952077 -0.06540021 0.0014506242 -0.027774477 -0.013150501 0.033240326
0.005723641 0.053151436 0.0088374475 0.03972447 -0.003101666 0.015313383 -0.058398306 0.0346822
-0.035863534 0.055592224 0.045464315 -0.056072045 0.107055664 0.038232405 0.0076792464 0.051032856
-0.021156434 -0.024168132 0.11317591 0.03351906 0.09708728 0.046449248 0.07273781 -0.06270925
-0.013531771 0.06455368 -0.009223728 0.006210739 0.06025996 0.04601136 -0.06997512 -0.003937289
0.049753897 -0.09726144 -0.07308075 -0.018696079 -0.01668312 -0.10785798 -0.09689035 -0.03338074
0.036778677 0.026572635 -0.008614717 0.07419559 -0.10366764 0.023641326 -0.01986764 0.011597452
0.032291997 -0.01986636 -0.037542608 0.08077028 -0.007685008 -0.057930063 -0.08160581 0.02388594
-0.07144391 -0.062170446 -0.038937107 -0.054303832 0.040642075 0.055093043 -0.03803599 -0.03392399
-0.108200945 0.038681623 0.071569085 0.045084294 0.1285576 0.05400135 -0.017391536 0.025210446
-0.018731102 -0.040157523 0.098222725 0.07353053 0.06433999 -0.059509836 -0.08265801 0.028814755
-0.05658686 0.003354653 0.0066686524 -0.069564246 -0.012967283 0.06748964 -0.028453661 0.07873099
-0.013573322 0.056335814 0.03105747 0.053504605 0.06444413 0.05858272 -0.04203929 -0.009673372
0.062921226 -0.1090882 0.01399921 0.03145218 0.023753872 -0.01743612 -0.013525927 -0.03693181
-0.04836145 0.000716718 -0.031220399 -0.074778475 0.08671674 0.023159998 0.03348937 -0.0307593
-0.019292748 0.0912588 -0.0016278375 -0.016516684 -0.0026964587 0.11112991 -0.055375677 5.857707e-05
0.019417038 0.0044032265 0.022871954 0.1106729 -0.010824869 -0.061729547 0.016549777 0.0504606
-0.042229053 0.007396233 0.01800441 0.004165061 -0.014821573 0.12485358 -0.026103683 -0.02741619
0.026409604 0.074074514 -0.016595742 0.076736964 0.037455745 -0.020361565 0.021017613 -0.03163283
0.04991913 -0.0018325349 0.026300125 0.06276348 -0.062325444 -0.07627414 0.019383267 0.046852835
00000000: 646b 5f3c 5ca7 263c ec4c 23bd 2ded 01bc
00000010: 744b 723c 0104 803d 3c1e 663a 9a63 94bb
00000020: 6ed9 1bbd 138a ea3d fc28 e53d e055 383b
00000030: bd51 a03d 7fd6 92bb 0a9a a1bd 639a 093c
00000040: ba6b a0bd 40c7 00bb 7d1d a03d fbe7 d4bd
00000050: 15ec 5abc 7263 39bd 932f 183d f4ed b3bd
00000060: f61d 7a3d 7a0e 833d 6db4 613c e7c8 c93d
00000070: 5c7e bfbd dbb6 dd3c c20c 863c abe0 463c
00000080: ad0e bc3d 6a0f d4bc 5746 37bd 5131 f03d
00000090: cd6d 6cbd fc4a e43d 5b33 0dbc fa72 7ebd
000000a0: 48b5 243d 99c3 6d39 a98f 65bd 0535 9fbc
000000b0: 19bf 963d 5a01 1dbc d0d5 c0bd 8992 00bd
000000c0: 5bb2 3ebd 436c 383a 7b7d 4c3c 1f71 1a3d
000000d0: a0ea 403d a98f 573c 3f5d 463d 3703 c13d
000000e0: 8d4c b4bd 99bd 353c 60f3 2e3d 228e 3b3c
000000f0: 664e 9bbc 859f 11bd a5b0 ebbc 91e3 55bc
00000100: 0567 98bd 6b66 873d dc43 c4bd 543d 9d3d
00000110: 39de f93c fe51 b7bd 3693 01bd f48b 2b3d
00000120: 871d c1bc 2df0 913d 6d61 14bd b7e7 57bb
00000130: 1a1f 9abd f4ae b93c 17f1 9d3c 3896 9abd
00000140: 9de7 9f3d d3c3 b73d aa65 96bd 3ef9 9b3c
00000150: bfee 48bc c384 ed3d f650 36bd dc59 9d3c
00000160: 2170 cdbb 578c 2a3d 9e2d c13d 2371 b3bd
00000170: 20f6 833a 704b 1fbd fe6b 1b3d 3278 c1bd
00000180: 7473 473d 9969 0a3c 0dcc 73bd 8cf0 85bd
00000190: df22 be3a 4d87 e3bc 3375 57bc 0227 083d
000001a0: 618d bb3b 52b5 593d f1ca 103c 20b6 223d
000001b0: 5245 4bbb fce4 7a3c 1033 6fbd ec0e 0e3d
000001c0: a4e5 12bd acb4 633d ca38 3a3d cdab 65bd
000001d0: 0040 db3d 9599 1c3d 30a2 fb3b d407 513d
000001e0: 4250 adbc 3ffc c5bc c6c8 e73d 484b 093d
000001f0: b2d5 c63d 9141 3e3d 90f7 943d b56d 80bd
00000200: 5cb4 5dbc b834 843d 1f1f 17bc 7483 cb3b
00000210: 26d3 763d 6876 3c3d 1e4f 8fbd 6004 81bb
00000220: beca 4b3d 0131 c7bd 5cab 95bd 8528 99bc
00000230: 0aab 88bc a5e4 dcbd 736e c6bd 3eba 08bd
00000240: 3da5 163d dbae d93c be24 0dbc dcf3 973d
00000250: b34f d4bd 74ab c13c 76c1 a2bc 3d03 3e3c
00000260: 9d44 043d c7be a2bc 47c6 19bd e36a a53d
00000270: 85d2 fbbb 1348 6dbd f220 a7bd 72ac c33c
00000280: 2f51 92bd 70a6 7ebd 847c 1fbd b26d 5ebd
00000290: 4e78 263d 3ea9 613d a0cb 1bbd e2f3 0abd
000002a0: 7598 ddbd 9f70 1e3d d092 923d 4faa 383d
000002b0: 9aa4 033e 8530 5d3d b278 8ebc 2386 ce3c
000002c0: f871 99bc 377c 24bd ff28 c93d 2d97 963d
000002d0: afc4 833d 96c0 73bd 9a48 a9bd ec0c ec3c
000002e0: a0c7 67bd bdd9 5b3b b684 da3b b377 8ebd
000002f0: ba74 54bc 0238 8a3d a717 e9bc b73d a13d
00000300: a462 5ebc 62c0 663d 3c6c fe3c a527 5b3d
00000310: 49fb 833d 6ff4 6f3d 6431 2cbd 107d 1ebc
00000320: d8dc 803d a269 dfbd f15c 653c 00d4 003d
00000330: 7b97 c23c 32d6 8ebc da9b 5dbc cf45 17bd
00000340: a816 46bd 21e2 3b3a ecc1 ffbc 7525 99bd
00000350: 8c98 b13d 09ba bd3c 262c 093d edfa fbbc
00000360: d30b 9ebc e5e5 ba3d 2a5d d5ba ff4d 87bc
00000370: 12b7 30bb 1498 e33d 9bd1 62bd a6b0 7538
00000380: 7b10 9f3c f148 903b f75d bb3c 79a8 e23d
00000390: cb5a 31bc 1fd8 7cbd 6693 873c c6af 4e3d
000003a0: 5ff8 2cbd 195c f23b fc7d 933c 107b 883b
000003b0: 2fd6 72bc 3cb3 ff3d 64d7 d5bc eb97 e0bc
000003c0: f458 d83c 61b4 973d cbf3 87bc 4528 9d3d
000003d0: 326b 193d 4ccd a6bc 212d ac3c 6d91 01bd
000003e0: 0078 4c3d ab31 f0ba 5c73 d73c 248a 803d
000003f0: f748 7fbd 9e35 9cbd a8c9 9e3c c2e8 3f3d
